…
[main.py::train] Parameters: {'lr0': 0.01, 'lrf': 0.01, 'momentum': 0.937, 'weight_decay': 0.0005, 'warmup_epochs': 3.0, 'warmup_momentum': 0.8, 'warmup_bias_lr': 0.1, 'box': 7.5, 'cls': 0.5, 'dfl': 1.5, 'hsv_h': 0.015, 'hsv_s': 0.7, 'hsv_v': 0.4, 'degrees': 0.0, 'translate': 0.1, 'scale': 0.5, 'shear': 0.0, 'flip_ud': 0.0, 'flip_lr': 0.5, 'mosaic': 1.0, 'mix_up': 0.0, 'names': {0: 'cell'}}
[main.py::train] Number of classes: 1
[main.py::train] Model created with input size: (128, 256)
[main.py::train] Model architecture: YOLO(
  (net): DarkNet(
    (backbone): ModuleList(
      (0): Conv(
        (conv): Conv2d(3, 4, kernel_size=(3, 3), stride=(2, 2), padding=(1, 1), bias=False)
        (norm): BatchNorm2d(4, eps=0.001, momentum=0.03, affine=True, track_running_stats=True)
        (relu): ReLU(inplace=True)
      )
      (1): Conv(
        (conv): Conv2d(4, 8, kernel_size=(3, 3), stride=(2, 2), padding=(1, 1), bias=False)
        (norm): BatchNorm2d(8, eps=0.001, momentum=0.03, affine=True, track_running_stats=True)
        (relu): ReLU(inplace=True)
      )
      (2): Conv(
        (conv): Conv2d(8, 16, kernel_size=(3, 3), stride=(2, 2), padding=(1, 1), bias=False)
        (norm): BatchNorm2d(16, eps=0.001, momentum=0.03, affine=True, track_running_stats=True)
        (relu): ReLU(inplace=True)
      )
      (3): Conv(
        (conv): Conv2d(16, 64, kernel_size=(3, 3), stride=(1, 1), padding=(1, 1), bias=False)
        (norm): BatchNorm2d(64, eps=0.001, momentum=0.03, affine=True, track_running_stats=True)
        (relu): ReLU(inplace=True)
      )
    )
  )
  (head): Head(
    (conv): Conv(
      (conv): Conv2d(64, 24, kernel_size=(1, 1), stride=(1, 1), bias=False)
      (norm): BatchNorm2d(24, eps=0.001, momentum=0.03, affine=True, track_running_stats=True)
      (relu): ReLU(inplace=True)
    )
    (dfl): DFL(
      (conv): Conv2d(16, 1, kernel_size=(1, 1), stride=(1, 1), bias=False)
    )
    (cls): Conv2d(24, 1, kernel_size=(1, 1), stride=(1, 1))
    (box): Conv2d(24, 64, kernel_size=(1, 1), stride=(1, 1))
  )
)
Model summary saved to ./results/rect_256x128_v5_pytoch/model_summary.txt
Successfully logged model summary from ./results/rect_256x128_v5_pytoch/model_summary.txt
Accumulate steps: 16
Weight decay: 0.0005 -> 0.0005

--- [utils/util.py::ComputeLoss.__init__] PYTORCH INITIALIZATION DEBUG ---
[utils/util.py::ComputeLoss.__init__] Model head stride: tensor([8.])
…
